model.pth (torch, 447183 bytes, 8 tensors)

linear_relu_stack.0.weight f4 [128, 784]
000000 1e 19 f8 3c 98 d2 6d 3c 53 6a fc bc d7 51 4c bc
       0.030285414 0.0145155415 -0.030812418 -0.012470684
000010 11 50 ae 3c 40 f1 82 bb 17 e8 04 bd 81 62 ea 3c
       0.021278413 -0.0039960444 -0.0324479 0.028611423
000020 dc 90 1c 3b 9f 29 0f 3d 01 bc fd b9 8a 8d bd 3b
       0.0023890054 0.034951802 -0.00048395994 0.005784695
000030 da 91 fa ba 68 03 07 3d 2d 2a f8 3c 47 91 6d 3b
       -0.0019116953 0.032962233 0.030293548 0.0036249922
000040 9a 33 dd 3c 25 bb 53 ba 1e fa 90 3c 75 16 0a 3d
       0.027002145 -0.0008076898 0.01769739 0.033712823
000050 6e 3d cd ba 00 b7 8e 3b b5 e2 01 bd 3a b2 e1 bc
       -0.0015658566 0.0043553114 -0.031710345 -0.027550805
000060 a5 45 1d 3c 75 7e e0 3c 57 eb 41 3c e5 3a ec bb
       0.009599124 0.02740405 0.011835895 -0.007209169
000070 91 a8 c2 3c e3 e1 cd bc ea f8 4c bc 78 32 7d bc
       0.02376202 -0.025132125 -0.012510518 -0.015453927
000080 84 77 ee 3b 72 c1 0d 3d 8d b8 ee 3c ac 52 e7 bc
       0.007277431 0.034608312 0.029140735 -0.028237663
000090 56 b2 ad 3c e8 8e 76 bc a8 62 f4 3c 12 e6 0e bd
       0.021203201 -0.01504872 0.0298322 -0.03488738
0000a0 11 d3 c9 bc a2 fb 2f bc e9 29 8b bc 55 32 a9 3c
       -0.024636777 -0.010741146 -0.016987758 0.020653883
0000b0 b6 a4 39 3c 2d 24 06 bd a0 ad ee bc 0a 18 93 3b
       0.011330774 -0.032749344 -0.029135525 0.0044889497
0000c0 df 0c 07 bc 6a 4e 90 bc 48 0f d7 3c 41 17 43 bc
       -0.008242815 -0.017615516 0.026252404 -0.0119074
0000d0 93 4f f4 bc 25 60 c0 bc c1 0d ee bc 01 31 2b bc
       -0.0298231 -0.023483345 -0.029059293 -0.010448695
0000e0 61 5b 5b bc f8 49 ef 3b cb ab 79 bc a8 dd af 3c
       -0.013388486 0.007302519 -0.015238713 0.021467999
0000f0 f1 aa f0 bc f7 1e cf bb d3 a1 b0 bc f4 1f 4d bb
       -0.029378386 -0.00632083 -0.021561539 -0.0031299563
000100 31 29 e9 3c 1d 39 a3 3c ad bd 8e 3b 14 20 21 bd
       0.028462024 0.019924695 0.004356107 -0.039337233
000110 ca 56 5e bc d8 a3 8a bc 22 67 21 bd 47 79 8f 3c
       -0.013570497 -0.01692383 -0.039404996 0.017513884
000120 08 b0 aa 3c 90 07 09 bd 62 37 f3 3c 31 8d cd 3c
       0.020835891 -0.033454478 0.029689495 0.02509174
000130 f7 45 b2 bb 3c 8e 0c bd 41 36 dd 3c c5 d5 91 3c
       -0.0054404694 -0.034315333 0.02700341 0.017802129
000140 b8 43 8b bc be a4 0d 3b fe e7 df 3c 5a 3a ec 3c
       -0.017000064 0.0021613087 0.027332302 0.028836418
000150 93 16 e0 3b 7e ab 87 3c aa 49 76 bc cd 63 fb 39
       0.0068386286 0.016561266 -0.015032211 0.00047948808
000160 08 dc 07 bd ad f7 6e 3c c5 66 82 3c 1b ce 9a bc
       -0.033168823 0.014585418 0.015918145 -0.018897107
000170 8c 28 b7 bc da 49 e2 bc bf c3 6c 3c db cf 8f bc
       -0.022358201 -0.027623106 0.014450966 -0.017555168
000180 b0 fa 58 3b 61 eb 2b bc ed 3f 0a bc 94 50 13 3d
       0.0033108406 -0.01049313 -0.008438093 0.035965517
000190 06 bb 92 bb 03 b1 2c bd bc 5d e2 bc d6 03 76 3b
       -0.0044778613 -0.042161 -0.027632587 0.0037538907
0001a0 f3 5f f0 3b 26 eb 19 bc eb 7a a9 bc 6c e9 64 3b
       0.007335657 -0.009394443 -0.020688495 0.003492917
0001b0 7f 98 42 bc 98 11 9b ba 8a 5b 74 3c 4c d9 ad bc
       -0.011877178 -0.0011830805 0.014914403 -0.02122178
0001c0 77 c1 11 bc 14 51 44 3c c8 c5 c1 bc 9c 86 88 3a
       -0.008896223 0.011982221 -0.02365388 0.0010416093
0001d0 f0 48 94 3c 5a b8 ae bc 9d a4 1e bc 1d 97 89 bc
       0.018101186 -0.02132814 -0.009682802 -0.01679569
0001e0 c3 1b 5d bc 98 c0 e6 bb a2 04 6f bc 20 33 84 3d
       -0.013495388 -0.007042002 -0.014588507 0.06455064
0001f0 33 1e 8c 3c cc e3 47 bc df a7 9b 3c 62 0c 84 bc
       0.017104244 -0.012200307 0.019000946 -0.016119186
000200 fb 40 95 bb e4 9d 04 bc b1 d1 3c bb f9 6c 0f bd
       -0.0045548654 -0.008094285 -0.002881151 -0.035016034
000210 59 4f 38 bd 0a 85 d1 bc 7a 6a bd b8 0e 6f a5 3c
       -0.044997547 -0.025576133 -9.032055e-05 0.020194557
000220 21 29 b6 3c a6 61 e7 bc 83 49 ed 3c 8b c9 55 bc
       0.022236409 -0.028244805 0.028965717 -0.01304854
000230 a5 b1 11 bb 8a 20 0f 3c 2a cc 6b 3c c2 73 91 ba
       -0.0022231129 0.008735785 0.014391938 -0.0011097121
000240 3a ff a0 3c 55 d9 d4 bc 35 26 a2 bb 50 8d 96 ba
       0.019652952 -0.025982538 -0.0049484023 -0.0011486206
000250 02 63 01 bd de 12 a1 bc 81 d8 00 3d b7 86 70 3d
       -0.03158856 -0.019662317 0.031456474 0.058722224
000260 83 6b 27 3c 1f 3d 6b 3c 07 fd 0b 3d 3c 7b 4f bc
       0.010218504 0.014357834 0.034176853 -0.012663659
000270 23 e0 64 3c 54 5b bb 3b a8 3b 36 bd 95 2e 6b bd
       0.013969454 0.0057176743 -0.044490486 -0.05741747
000280 b0 d5 8e 3c 97 a3 33 bc ec 1a 06 bc 21 b8 78 bc
       0.017435879 -0.010964296 -0.00818513 -0.0151806185
000290 92 29 06 3c c5 e1 11 3d fb 6b 63 3a b7 07 00 bd
       0.008188622 0.0356157 0.0008675453 -0.031257357
0002a0 0e e5 eb 3c bd 11 67 3c 17 0c d1 bc 61 74 88 3c
       0.028795745 0.01410335 -0.02551846 0.016657056
0002b0 cd 86 eb bb d2 fe a8 bc 0d 49 be bc f0 16 90 3c
       -0.0071877004 -0.02062932 -0.023228193 0.017589062
0002c0 ed 96 81 3c 7b 93 6b ba 63 d2 8a 3d de af 4e 3d
       0.015819037 -0.0008986515 0.06778409 0.05046069
0002d0 2b 49 09 3d 15 54 26 3c 9f 56 37 3c 7a 3b 7f bc
       0.033517044 0.010151883 0.011190086 -0.015578145
0002e0 82 c6 0d 3c cd b4 37 3a 3e fb 1d 3c a9 f5 0a bc
       0.008653285 0.00070078374 0.00964242 -0.0084814215
0002f0 a8 5b d5 3c 6e 8f 3d 3d d4 6c 9e 3c 0e d9 18 bd
       0.026044682 0.046279363 0.019339003 -0.037316374
000300 62 11 40 3d 7d cc 91 bb cc c1 c6 bc 76 74 5d bc
       0.046891578 -0.0044494257 -0.024262331 -0.013516536
000310 7b 3c 3a bc 01 59 fa 3c 63 34 01 bd 8f 9d 08 bc
       -0.011366959 0.030560018 -0.0315441 -0.008338346
000320 8b 68 6a 3b 44 77 b5 3b 9d e4 0b 3c 6a ea b3 3c
       0.003576788 0.005537899 0.008538392 0.021962363
000330 5b b7 5e 3d 78 be 09 3d 89 57 d8 3d 80 83 85 3d
       0.05437408 0.03362891 0.10563571 0.06519222
000340 00 83 60 3c 88 65 5e 3c f5 88 94 3d 86 0e 26 3d
       0.013703108 0.013574012 0.07252685 0.040541194
000350 dd 60 b8 3c 05 19 5c 3d 9d b2 c4 3c e3 62 61 3d
       0.022507126 0.053734798 0.02401095 0.055025946
000360 db 82 dd 3c d5 1b 80 3c 88 ba 69 bb f2 77 b2 bb
       0.027039936 0.015638271 -0.003566416 -0.0054464275
000370 e8 de 94 3c 36 91 26 3d 23 3f 86 bc 5c 46 7d 3c
       0.018172696 0.040665828 -0.016387528 0.0154586695
000380 56 19 e4 3c 57 98 cf bc bf 58 ec 3c a1 26 e9 3c
       0.027844112 -0.025341196 0.028850911 0.028460803
000390 e0 4f e7 3c 23 b0 01 3d 38 73 7b 3c 94 a2 c9 3c
       0.02823633 0.031662118 0.0153472945 0.024613656
0003a0 6a 25 45 3d 92 0a 8b 3d 9a be 1c 3d d4 31 e7 3c
       0.048131384 0.067891255 0.03826771 0.028222002
0003b0 35 c7 d9 3c 0f 4f 7b 3c 27 7c 86 3d a5 2c e5 3c
       0.026584247 0.015338673 0.06566649 0.02797539
0003c0 71 7c ad 3d 8c 57 88 3d b0 13 c1 3d 48 80 c8 3a
       0.08471001 0.06657323 0.09427583 0.001529702
0003d0 43 e6 5d 3d 6c fc 6d 3d a8 64 77 3d 22 5d 53 3d
       0.054174673 0.058102056 0.060398728 0.05160249
0003e0 df 2e 8e 3d 1a 40 61 3d 57 c1 7b 3c 20 1f 6c 3c
       0.06942534 0.054992773 0.01536592 0.014411718
0003f0 15 91 01 bd 42 17 bc 3c a1 bc 97 3c 2d 5b e0 3c
       -0.0316325 0.022960309 0.018522562 0.027387226

linear_relu_stack.0.bias f4 [128]
000000 39 da 32 bb a4 ca 00 3e d2 91 83 3d 2d 0e f0 bd
       -0.0027290715 0.12577301 0.064242974 -0.11721454
000010 d9 b8 87 bd b7 57 ae bd 89 80 a1 3d 0b 29 62 bd
       -0.06627054 -0.08512824 0.07885844 -0.055214923
000020 f8 55 8f 3c c4 7c 60 3c 63 8d f3 3c d5 02 1f 3d
       0.017497048 0.013701621 0.029730504 0.03882106
000030 16 3f f4 3c b0 64 69 bc ca cc 5f bd 75 78 36 3a
       0.029815238 -0.014245197 -0.05463866 0.00069606985
000040 8e bf 45 3d d8 0d ba bd ce 89 3f 3c 6d 25 85 3c
       0.048278384 -0.09084672 0.01169057 0.016253198
000050 8c 51 78 bc 52 98 e2 bd c0 20 a2 bc d8 13 be bc
       -0.015156161 -0.11064209 -0.019791007 -0.023202822
000060 30 4b 14 3d 3b 0e 76 bc 96 ee 78 bc 32 9c 0a 3d
       0.036204517 -0.015018041 -0.015193602 0.033840366
000070 d9 d2 ae 3c 33 e0 61 bc fa cd e4 3d b2 f0 55 3d
       0.021340774 -0.013786363 0.111720994 0.052231498
000080 2f 4b b2 3c d7 8c bc bc c2 11 6f 3d 7e 41 da 3c
       0.021764366 -0.023016376 0.058366545 0.026642557
000090 c1 4d fa bb 7a e5 d8 3c 9e 8e 43 bc 6e e4 74 3d
       -0.0076386635 0.02647661 -0.011935858 0.05978816
0000a0 93 66 14 3e fb ac ca 3c 7a d5 04 3d 6d f6 f6 bc
       0.14492254 0.024740687 0.03243015 -0.030146802
0000b0 5d 28 9d 3d fa 56 21 3d 34 24 18 3d 21 02 da bc
       0.07673714 0.039389588 0.0371439 -0.026612343
0000c0 48 78 5a 3d b6 24 af 3d f8 d9 e1 3c 92 ed c7 3d
       0.053337365 0.08551924 0.027569756 0.0976211
0000d0 db 76 4b 3d 87 11 0e 3d 6a 9c 70 bc b2 02 46 3c
       0.049673896 0.034684684 -0.0146857295 0.012085604
0000e0 e6 88 c4 3d 3c 9e 5f 3b be d3 d3 3d d8 45 08 bd
       0.09596424 0.0034121415 0.10343121 -0.033269733
0000f0 90 65 17 bb 1a c2 c9 3d 71 a6 8e bb 55 16 c0 3d
       -0.0023101307 0.09851475 -0.0043533375 0.093792595
000100 bd 0b 50 bc 1c 56 87 3b a4 3b a4 3c ae 0c 3f 3b
       -0.012698111 0.004130138 0.02004797 0.0029151845
000110 e3 ce 96 3b e7 b5 f5 3b e8 7e c1 3d d7 8e 5b 3d
       0.0046022995 0.007498491 0.094480336 0.05360302
000120 a4 b8 89 bc c6 c8 bb 3c 2e cc 7d 3d 59 53 8f bd
       -0.016811676 0.022922885 0.0619623 -0.06998319
000130 db aa 01 bd d2 d9 5b 3c 20 16 05 bc 43 82 a3 3d
       -0.03165708 0.013418632 -0.008122951 0.0798383
000140 e9 27 1c 3d eb c6 71 3b cb 25 d8 3c d1 83 1c 3d
       0.038124 0.0036892246 0.026385209 0.038211647
000150 d3 e2 1d 3d e3 0f ab 3c e3 16 1c 3d 16 64 1a bd
       0.038546395 0.020881599 0.038107764 -0.037693106
000160 a3 d7 ea bc c0 8a 3e 3d 76 91 f3 bc 4c 8c 9d 3d
       -0.028667277 0.04651904 -0.029732447 0.07692775
000170 56 c4 3b bb 89 0c 9b 3d 1a b8 8c 3d 6a ed a3 3d
       -0.002865096 0.0757075 0.06871052 0.080042675
000180 75 4e 0a bd 00 ec 5b bc c7 25 56 3c 8f c6 c0 3c
       -0.03376623 -0.013422966 0.01307053 0.02353218
000190 59 21 18 3b 55 fe 2a 3d 8d d0 9d 3c 1c 05 08 bd
       0.0023213236 0.041746456 0.019264484 -0.033207998
0001a0 d9 3b 50 bd 5a b0 c8 3d ea b2 ab bb 4b cd e3 3c
       -0.050838325 0.097992614 -0.005239834 0.027807852
0001b0 39 a5 e7 bd 6a 1f 04 3d f5 39 b2 bb d7 77 3e 3d
       -0.113108106 0.03225652 -0.005439038 0.046501007
0001c0 e2 ba 17 3d 9d 93 bb 3c 62 8e 10 bd 09 33 0b bd
       0.03704346 0.022897536 -0.035292037 -0.033984218
0001d0 c8 9a f5 3c 29 89 99 bc 00 56 0d 3c b0 0b 12 bd
       0.029981032 -0.01874216 0.008626461 -0.035655677
0001e0 d2 b5 ff bb 73 4e 9b 3c cb 3e e8 3b 5c de 36 3d
       -0.007803657 0.018958306 0.0070875636 0.044645652
0001f0 32 4d 02 bd 06 76 15 3d c0 e8 1c 3d 2e ee 88 3d
       -0.0318119 0.03648951 0.038307905 0.06686054

linear_relu_stack.2.weight f4 [64, 128]
000000 3c 43 2d be 25 1f a0 3d f7 77 c8 bb f3 a1 8e bd
       -0.16920179 0.0781844 -0.0061178165 -0.06964483
000010 88 f4 c1 3d 2c 15 9a bd 55 5b 0f 3e ac f3 61 bd
       0.09470469 -0.075235695 0.13999684 -0.055164024
000020 7d 7c e9 bc 7e ae f1 3d 60 25 ba bd 9c 5a 69 bd
       -0.028501743 0.1180086 -0.0908916 -0.056971177
000030 5b b7 7c 3c c9 bc 6a 3e 50 7e 35 be 35 6c e6 bb
       0.015424575 0.22923578 -0.17723966 -0.0070319423
000040 d0 d3 7b bd 13 75 4b 3e e3 90 89 3d 64 aa 1f 3d
       -0.061481297 0.19868879 0.06717088 0.038980857
000050 15 82 05 3e ea 6a 15 bd 61 01 83 3c 05 7a 76 3d
       0.13037904 -0.036478914 0.015991868 0.06017496
000060 d1 40 2b be 51 9d 65 be 9a 8f 63 3e 47 0e 08 3d
       -0.16723944 -0.22423293 0.22222748 0.03321674
000070 b9 09 d1 3d 8b a4 db bc 2a f0 0f 3e 4f 64 1e bd
       0.102069326 -0.026811859 0.14056459 -0.03866988
000080 ae 4a 48 bb b0 8a 6d 3d 54 dc 2f 3d 46 95 56 ba
       -0.003056209 0.05799359 0.04293473 -0.00081856956
000090 87 4c c2 bd eb 8d e3 3d 7f aa 20 be 6c c2 c7 bd
       -0.09487253 0.11111053 -0.15690039 -0.0975388
0000a0 fa 12 92 3d f4 e1 3c 3b ee 46 02 3e 8f 23 98 bd
       0.07132526 0.0028821202 0.1272237 -0.07428657
0000b0 84 6d 12 3d d4 32 ce bd d4 fa 10 3e 2a 17 ee 3d
       0.035748973 -0.100682884 0.14158183 0.11625512
0000c0 06 7f 04 be 4f f4 17 3e 0f 8c 91 3d 8f 12 e0 3d
       -0.1293908 0.1483929 0.07106792 0.1094104
0000d0 12 d8 e1 3d 2d 5f 08 bc 93 4f a0 3d 86 61 ea 3c
       0.1102754 -0.008323473 0.078276776 0.028610956
0000e0 ed 11 90 3d 90 34 83 bd 6b 09 1d 3e 88 4d 00 3e
       0.07034669 -0.0640651 0.15335624 0.12529576
0000f0 d3 e2 1a bd a3 e0 46 3e ed 70 1f 3a d6 31 ee bc
       -0.037813973 0.1942163 0.0006082196 -0.029076498
000100 a7 8e 1c be be 6e 9f 3c c5 6b b8 bd 06 51 cc 3d
       -0.15288793 0.019461986 -0.090049304 0.099763915
000110 18 01 1c 3e ca 48 cb 3d 04 27 a1 3d c6 5f 96 bd
       0.15234792 0.09925993 0.0786877 -0.07342486
000120 38 02 20 be cd 0d 40 bd 25 7e 99 bd 67 3c 45 3d
       -0.15625846 -0.04688816 -0.07494763 0.048153307
000130 43 b6 e7 bc f9 04 c7 3d 93 a7 c9 3b db ec dc 3d
       -0.028285151 0.09717745 0.0061540096 0.10787364
000140 40 3b 88 bd 05 91 c0 bd 63 be 89 bd ca 13 de 3b
       -0.06651926 -0.0940266 -0.067257665 0.0067772614
000150 1a 6c 19 3d bc 17 11 bd b0 62 2b 3e 16 a5 78 3d
       0.03745661 -0.035423025 0.16736865 0.060704313
000160 5c ac 31 3d 23 6b bd bd 2d 08 38 bd 5b 57 0b 3d
       0.043377265 -0.0924895 -0.044929672 0.034018856
000170 79 1d a4 3c 38 46 0e 3e 91 ee 88 bd 2c 32 13 3d
       0.020033585 0.13893974 -0.06686128 0.03593652
000180 62 a6 c2 bd c5 2c ce bd 8d ff f9 bb 5e 36 e9 3d
       -0.09504391 -0.10067133 -0.007629341 0.11387323
000190 59 ee ca bd de 08 8a 3d 9b 86 3f 3e 67 0b 73 3e
       -0.099087425 0.067399725 0.18703692 0.23734818
0001a0 24 a2 c7 3d ea 73 26 bd 2c bb a4 3d 28 ae c9 bd
       0.09747723 -0.040637888 0.08043513 -0.09847671
0001b0 89 17 a1 bd 4d 84 64 3d ff fe 19 bc da ff 26 3d
       -0.07865817 0.055790234 -0.009399175 0.040771343
0001c0 a1 f9 26 be ac 2f 42 be 0f 28 d2 bd eb b7 ff ba
       -0.16306163 -0.18963498 -0.10261547 -0.0019509768
0001d0 1b 71 65 3d 6b 82 08 3e 2a a8 86 3d ac 96 e7 3c
       0.05601607 0.13331 0.065750435 0.028270088
0001e0 e8 f1 0d bd 64 18 68 3d d9 74 e8 bc d0 3a 35 3b
       -0.034654528 0.056663886 -0.02837603 0.0027653463
0001f0 18 59 8b 3d 58 fa e8 bd 2e b9 92 3d 09 49 fc bc
       0.06804103 -0.11375874 0.071642265 -0.030796545
000200 33 32 af 3d 21 02 1d bd 4e 42 d7 3c e4 56 f4 bd
       0.085544966 -0.03833211 0.026276734 -0.119306356
000210 9d e5 c1 3c 9d 2c eb bd e7 83 20 3b 24 a9 f8 bd
       0.023669058 -0.11483119 0.0024492682 -0.12141636
000220 5a bc 49 bc 00 12 08 3d 46 12 cd 3d 37 a2 cc bd
       -0.012312973 0.03322029 0.10013251 -0.099918775
000230 d6 c9 30 3d e4 3d 9b 3b ae 44 5e bc 3a 8c bf 3d
       0.043161236 0.0047376025 -0.013566179 0.09352918
000240 dd 28 a6 3d 2c 98 7d bd 51 36 5d bd d7 f5 f7 3d
       0.08113263 -0.0619127 -0.05400688 0.12107437
000250 da 7e e0 bc 3c 03 3a bd ff 77 a9 3d 81 d3 08 3b
       -0.027404238 -0.04541324 0.082748406 0.002087802
000260 97 57 bb 3c 5d 7b 89 3d 31 6a 4a bd e7 33 01 3d
       0.022868915 0.06712983 -0.04941768 0.03154364
000270 c0 0f 0a bd ec af 4f bd 14 02 3c bc 9d 2d df 3b
       -0.033706427 -0.05070488 -0.011475105 0.0068108574
000280 c6 34 08 bd c9 9b ce 3d 43 6e d6 bc bc 1a b8 bd
       -0.033253454 0.100883074 -0.026175624 -0.08989474
000290 68 4c c7 3c 4c e0 19 be a7 55 c9 3d ec 35 87 bd
       0.024328426 -0.15026969 0.0983079 -0.06602082
0002a0 b8 06 e6 3d 14 c5 08 bd 5f 12 db bd b9 d9 14 bd
       0.1123175 -0.033391073 -0.106968634 -0.03634045
0002b0 44 4b d9 bd 4a ca 06 bc 56 f1 1d 3d d6 9f 8b bd
       -0.10610059 -0.00822694 0.038560234 -0.06817596
0002c0 be 9b 92 3d 4b 33 dd bd 08 8f 17 3d 44 dd f6 3d
       0.07158612 -0.10800799 0.03700164 0.12053922
0002d0 9e 77 79 bc 0a fb 94 bc f5 46 cf 3d 8c 83 08 3d
       -0.015226273 -0.018186111 0.10120956 0.033328578
0002e0 3e 28 8f 3d 6d 09 fd 3c b6 13 12 3e 9c cc 35 bd
       0.069900975 0.030888284 0.14265332 -0.044384584
0002f0 20 74 c6 bb ce 56 06 3e 81 82 8b bd 2d 14 88 3d
       -0.0060563236 0.13119051 -0.06812001 0.06644473
000300 a1 4f 7a bc c0 9e 58 bc 64 54 8c 3d ae 30 36 3c
       -0.015277774 -0.013221443 0.06852034 0.011120005
000310 93 b1 91 3d 9b 8b 74 3c 1a b4 34 be 34 79 42 bd
       0.07113948 0.014925863 -0.17646828 -0.04747887
000320 ed 28 94 bc 56 b8 80 bd 81 45 70 3d 77 20 d7 bd
       -0.018085921 -0.06285159 0.058660034 -0.10504239
000330 3c d9 10 be d9 de a2 3d 90 87 90 3d 34 b1 10 3c
       -0.14145368 0.07952661 0.070571065 0.008831311
000340 6e 4b 79 3c 21 5c ea bd 4c 10 d1 bd 28 1c e3 3d
       0.015215738 -0.114433534 -0.102081865 0.11089355
000350 3f 38 99 bd 71 99 38 bc b7 93 50 bc 17 a4 c1 3c
       -0.07481431 -0.011267052 -0.01273053 0.023637814
000360 9c 1b 5a 3c 71 80 22 3e 38 9a 67 bd 33 40 1b 3e
       0.013312247 0.15869309 -0.05654356 0.15161209
000370 29 8c d1 3c 9e 8a 68 3d e4 75 18 3d fb 19 9b bc
       0.025579529 0.05677282 0.037221804 -0.018933287
000380 63 47 95 bc a4 5a a2 bc 1f 42 e6 bd 6b 34 30 bd
       -0.018222516 -0.019818611 -0.1124308 -0.04301874
000390 2d ca b4 bd 53 03 ba 3d 80 c0 15 3c ad ee 3c bd
       -0.088276245 0.09082665 0.009140134 -0.046126056
0003a0 17 50 4e 3d 4c a6 2d 3d 57 7f 09 bd 2a 40 fc bc
       0.05036935 0.04239492 -0.033568706 -0.030792315
0003b0 3f 06 6a 3d 5a 56 0f 3e f2 f9 fa 3d 68 fd ff 3d
       0.057134863 0.13997784 0.122547045 0.12499505
0003c0 2e 97 b0 3c 0e 89 69 3c 32 d7 c4 bd 8f 36 ae 3c
       0.021556463 0.014253868 -0.09611358 0.02126625
0003d0 02 ab d4 3d a8 cf c3 bd 07 52 d5 3c 62 e7 63 bd
       0.1038418 -0.09561092 0.02604009 -0.055640586
0003e0 68 b7 e1 3c f9 8d 9c 3c 37 77 b9 bd 0a 7c b5 bd
       0.027553275 0.019110667 -0.090559416 -0.08861549
0003f0 31 a4 08 3b 44 10 14 bd fa 56 d3 3b 99 90 95 bd
       0.0020849819 -0.036148325 0.0064495774 -0.073029704

linear_relu_stack.2.bias f4 [64]
000000 e1 6f 4f 3c 99 97 83 bc bf cf fc 3a 74 5d 3c bd
       0.012660951 -0.016063498 0.0019287987 -0.04598756
000010 25 91 a4 3d 9a 30 1b 3e b3 46 38 bd 74 55 2f 3e
       0.080354966 0.15155259 -0.0449893 0.17122442
000020 2b 3f 5c bc fd 19 ef 3b 03 cb bb 3d c0 48 3a bd
       -0.013442795 0.007296799 0.09169581 -0.045479536
000030 eb 14 db bc a4 c1 ff 3b 4e 2b 84 3e 02 92 5d 3b
       -0.026743373 0.007805066 0.2581429 0.0033808951
000040 db 9d 2f bd 40 30 b4 3d 98 85 39 3d d4 35 de 3b
       -0.042875152 0.087982655 0.04529342 0.006781319
000050 37 46 73 bd 30 e0 0b bd 38 58 e5 3d a4 f5 76 3b
       -0.059393134 -0.03414935 0.11198467 0.0037683034
000060 f8 f8 ac bb 02 6d 79 bd a0 6f ae bc 6c a6 8f 3d
       -0.005278703 -0.060894974 -0.021293461 0.07014164
000070 5f 01 4f bd 72 30 1b bd ea 94 3f bb 3a b2 6e bd
       -0.050538417 -0.037887998 -0.0029233047 -0.05827544
000080 e6 5c ce bc 27 4c d2 bc 40 1c d2 3d 38 dc 18 3e
       -0.025190782 -0.025671078 0.102592945 0.14927757
000090 7e 83 7d bd d3 60 d7 3c 09 37 44 3d 33 cf 0a 3d
       -0.06189298 0.026291287 0.047904048 0.033889007
0000a0 52 da 09 3d f4 90 08 3b 77 13 b0 3d 43 57 4a 3d
       0.033655472 0.0020838352 0.085974626 0.049399626
0000b0 1b 90 ad bd cf 4e af 3d c9 1a 8c 3d 3c c8 54 bd
       -0.084747516 0.085599534 0.06841046 -0.05194877
0000c0 1f 1b 28 3d f8 50 72 bd 8e 23 22 3d 7a 5c 51 bd
       0.04104149 -0.05915925 0.03958469 -0.051113583
0000d0 73 0d 9f bd 74 a8 57 3c 03 c7 06 3e 34 de eb 3b
       -0.07766237 0.013162721 0.13161854 0.0071981195
0000e0 8b c4 28 3e a5 62 44 bc 97 b7 19 3e 26 56 06 3e
       0.16481225 -0.011986409 0.1501144 0.131188
0000f0 8b 7d 93 3d 3d f6 b2 3c 99 1d ab 3d 23 f9 05 3e
       0.0720168 0.021845931 0.08355255 0.1308332

linear_relu_stack.4.weight f4 [32, 64]
000000 9e f1 2c be c5 01 f2 bd 67 e9 63 bd 8b b8 b8 bd
       -0.16889045 -0.11816744 -0.05564251 -0.09019574
000010 70 73 8a bd c0 81 08 bd 36 a3 34 3e c5 c1 31 3c
       -0.06760299 -0.033326864 0.17640385 0.010849421
000020 de d3 41 bd 2a 0b 1e be a8 8d 13 3e df e1 68 bd
       -0.047321193 -0.15433946 0.14409506 -0.056856032
000030 57 8d cd 3a a7 e3 12 bb 34 cc 2a 3e 77 33 40 3d
       0.0015682381 -0.0022413523 0.1667946 0.04692408
000040 35 9a 21 3e 16 94 74 3d 31 be 6d 3e 54 e1 b4 3d
       0.15781482 0.05971154 0.23217084 0.088320404
000050 87 5e 1c 3d 93 65 8b bd 52 5a 7e bc d8 5d 1d be
       0.038176086 -0.06806483 -0.015524464 -0.1536783
000060 f0 60 44 bd bf 33 01 3e 78 eb 65 bd 20 aa 6c bd
       -0.04794401 0.12617396 -0.056132764 -0.05777943
000070 6e 9e 6b 3d 92 f5 41 bd aa de 97 3d fc f3 a0 3d
       0.057524137 -0.047353335 0.07415517 0.07859036
000080 91 8b 74 bd a4 41 76 3c c5 f6 a3 bd 8a 22 64 3e
       -0.059703413 0.015030298 -0.08006052 0.222788
000090 a7 06 39 bd ea bd c3 3d e8 b0 95 3b 6a 8b 3b bd
       -0.04517236 0.095577076 0.004568208 -0.045787252
0000a0 3d cd 4e 3e 45 9e 3d 3d ee c2 aa 3e cb 82 44 be
       0.2019548 0.046293516 0.33351845 -0.19190519
0000b0 6a e7 92 3d c4 12 d0 bd ca af a8 3d 90 89 85 bc
       0.07173045 -0.10159829 0.08236654 -0.016300946
0000c0 42 48 af bd 55 cf 99 bd 20 7c 30 be 62 87 7d bd
       -0.08558704 -0.075102486 -0.1723485 -0.06189669
0000d0 dd 72 2a bd 2d 84 e4 bc 27 7a c8 bd 81 ad 00 3e
       -0.04161345 -0.027895058 -0.09788924 0.12566186
0000e0 36 c2 1f 3e 54 a2 60 3d 35 3a a8 bd 90 37 f2 3d
       0.1560143 0.05484231 -0.08214227 0.11827004
0000f0 2c 79 32 be 70 dc 8f 3d 28 71 3b be 08 4a 27 be
       -0.17429036 0.07024467 -0.18304884 -0.16336834
000100 ef b8 bc bd 31 5d 79 bd b2 2e 39 be 9c d2 cb bd
       -0.09214961 -0.06087989 -0.18084219 -0.0995228
000110 14 a6 65 bc 91 f3 22 3b 42 28 3e 3e 75 76 40 be
       -0.014016647 0.0024864415 0.18570045 -0.18795188
000120 c6 3f 16 bd 5f f5 8d 3e da e6 c8 3e cb 19 26 3d
       -0.036681913 0.27726266 0.39238626 0.04055194
000130 88 dd b7 bd 44 a1 89 bd 17 e7 b2 3d 80 e0 a8 3d
       -0.089778006 -0.06720212 0.08735483 0.08245945
000140 c9 81 89 3d 3c 0f a5 be 74 38 68 3c ee 1e a2 bd
       0.06714208 -0.32238185 0.014173616 -0.079160556
000150 5c fe 22 3a 34 fb 99 bc 4f ac 1a 3e 14 0b 1a 3e
       0.0006217712 -0.01879654 0.15104793 0.15043288
000160 28 20 32 be ad 57 6f 3e c3 f4 c1 3d 2a 36 4c 3c
       -0.17395079 0.2337329 0.09470513 0.012464086
000170 7d 67 eb 3d 18 b6 e3 be 40 98 f7 bc a6 01 56 bd
       0.11494348 -0.44474864 -0.030223966 -0.052247666
000180 d4 88 b2 bc 36 c4 c5 bd 68 f5 be 3d b8 0b 15 3b
       -0.02179376 -0.09656565 0.09324151 0.002274258
000190 12 7d b9 bd a1 50 76 be dc c4 0a 3e 24 df 5c 3e
       -0.090570584 -0.24054195 0.13551658 0.21569496
0001a0 9d fd 13 3e c5 92 3a 3e 78 98 fa 3e 00 59 96 3e
       0.14452215 0.1822005 0.4894445 0.29364777
0001b0 5d d4 ce 3d 18 9f e3 3d 49 27 37 3c 38 93 81 3c
       0.10099099 0.11114329 0.0111788 0.01581727
0001c0 73 97 c8 3d 39 70 71 bd 9d d0 1f be f4 36 2a 3e
       0.09794512 -0.058944914 -0.15606923 0.16622525
0001d0 5b 1a ae 3d 9c ba d1 3d 28 61 2b be cc 17 ff 3d
       0.08501121 0.10240671 -0.16736281 0.12455711
0001e0 af 86 27 be eb e8 6c 3e 19 11 78 be f0 14 8b 3c
       -0.16359971 0.23135726 -0.24225272 0.016977757
0001f0 3b e2 8f bc e3 13 94 be 1a 72 52 be 94 1f 95 bc
       -0.01756393 -0.28921422 -0.20551339 -0.018203534
000200 0b fa 27 bd c2 05 b9 3d 5a 6b 13 3d 4b 87 b7 bc
       -0.041009944 0.09034301 0.03599105 -0.02240338
000210 a3 b5 f6 bb 0e 87 b2 bd 2c c4 b6 3d 7f 4a da bd
       -0.007528977 -0.08717166 0.089241356 -0.1065874
000220 77 df ab 3d f0 75 70 bd f9 26 e4 bd a2 24 7f 3d
       0.08392232 -0.058706224 -0.11140246 0.062290795
000230 d9 23 ad 3b 49 61 2e 3b 71 f3 f0 bd 30 c2 62 3d
       0.0052838144 0.002660828 -0.11765183 0.055360973
000240 1c 73 ac bd 85 ad b6 3d a2 de cf 3d b6 87 8d bc
       -0.08420393 0.08919815 0.10149886 -0.017276626
000250 52 2e c6 3d 1b bb f0 3c 4a 3f 51 3d 40 bf c8 3d
       0.09676804 0.029386094 0.051085748 0.09802103
000260 2f 86 81 bd 2c 2d 8d bd 15 0f 7b 3d 91 0c 52 bc
       -0.063244216 -0.068933815 0.06129368 -0.012820379
000270 33 d7 d4 3d 9a 02 c9 bd d1 89 d4 bd 8f 31 33 bd
       0.103926085 -0.09814949 -0.10377849 -0.043748435
000280 1a f0 c4 bd 31 34 18 3d da 49 8b bd 2b 43 01 bd
       -0.09616108 0.03715915 -0.068011954 -0.031558197
000290 3f d0 dd bb 85 c6 72 3d 53 a0 98 bd 01 38 dd 3c
       -0.0067692096 0.059271354 -0.074524544 0.027004244
0002a0 6d de db 3d 01 33 cb 3d d1 ef 47 bd 5e 8b 50 3d
       0.10735784 0.099218376 -0.04881269 0.05091416
0002b0 34 bd f4 3c d7 c4 80 bd c9 57 dc 3d 59 88 f6 3c
       0.029875375 -0.06287544 0.10758931 0.030094313
0002c0 07 b2 ae 3d 56 52 de bd 9b e8 b3 bc bf fc 0b 3d
       0.0853005 -0.10855548 -0.0219615 0.034176584
0002d0 f0 d4 55 bb 00 88 b0 bd a9 19 b4 3d 4e b9 95 bd
       -0.0032628141 -0.0861969 0.08793957 -0.07310735
0002e0 18 6b 57 bd e7 28 07 3d 1c b8 9b 3d 7c 56 6c bb
       -0.052592367 0.032997992 0.076034755 -0.003606229
0002f0 7f 7d 43 3d 41 38 82 3d 89 5c cf bc b6 46 07 3c
       0.047727104 0.06358386 -0.025312679 0.008256605
000300 81 86 96 bc d8 85 af bd 6e 79 61 be 17 86 c4 3d
       -0.018374683 -0.085704505 -0.22018978 0.09595888
000310 3e ad ae bd b7 59 1c be 77 33 49 3e ea c8 8b be
       -0.08529137 -0.15268598 0.19648539 -0.27301723
000320 43 ea 2b 3d d6 94 07 be 38 75 26 3e 94 d5 e0 bd
       0.041971456 -0.1324037 0.16255653 -0.10978237
000330 40 a5 ef bd f1 71 ca bd d0 f6 0f 3e 1e aa ca bd
       -0.11701441 -0.09885014 0.14058995 -0.098957285
000340 66 66 f5 3d c4 b2 43 3e 74 d3 6e 3e c5 4d ba 3c
       0.119824216 0.19111162 0.2332285 0.022742162
000350 8d 32 57 3d 8c db 4d 3d aa 48 4a 3d 85 d8 ab bd
       0.052538443 0.050258204 0.049385704 -0.08390907
000360 ff ef 37 be 66 f5 27 3e 45 d3 51 bb 4f 45 5f be
       -0.17962645 0.16402206 -0.0032016796 -0.21803783
000370 94 72 f5 3c 35 94 92 bd 53 9c f3 bd f7 02 23 bd
       0.029961862 -0.071571745 -0.11895051 -0.03979775
000380 81 b8 a2 3d 5d 33 9a bd a6 ee 42 bc fa 89 0f 3c
       0.079453476 -0.07529328 -0.0118977185 0.0087609235
000390 29 18 db bb b1 87 a2 bd 98 f2 e0 3d 1c d4 55 3e
       -0.0066862297 -0.07936037 0.10983771 0.20881695
0003a0 a2 a4 82 bd 51 b9 a7 bd 95 2b a9 3e 6d b5 1e bd
       -0.063790575 -0.08189643 0.33041063 -0.03874724
0003b0 e5 16 c1 bc 70 9a e4 3c 51 ad 22 3d 0c ea fc 3d
       -0.023570487 0.027905673 0.03971607 0.123493284
0003c0 c0 dd 09 be 21 82 98 bd 88 c0 ab bd 2a 69 16 bd
       -0.13463497 -0.07446695 -0.08386332 -0.036721386
0003d0 02 cb 13 3d 17 7c 98 3d 9e e3 35 be 2e 9f 09 3e
       0.036082275 0.07445543 -0.1776261 0.13439628
0003e0 e4 0f 35 be 74 c6 01 3e ea 38 11 be 25 46 cf bc
       -0.17681843 0.1267336 -0.14181867 -0.025302002
0003f0 00 83 16 bd d4 92 22 3e ba ba 94 bd 35 f1 e1 bc
       -0.036746025 0.15876323 -0.07262178 -0.027580837

linear_relu_stack.4.bias f4 [32]
000000 25 9d 63 bd c8 ce 2b 3e 21 1b 04 be 7c 8b 26 bc
       -0.055569787 0.167781 -0.12900974 -0.010165092
000010 e7 50 09 3e ef d3 64 3e 94 e2 8a bd 49 87 3f be
       0.13409768 0.22346471 -0.067814976 -0.18703951
000020 0b fa 7e 3e 62 0a fb 3d 62 f2 89 3e e6 6d 80 3d
       0.24900071 0.1225784 0.26942736 0.062709615
000030 81 f4 b6 3d c7 95 3e bd 18 48 12 3e 58 c5 8b bd
       0.08933354 -0.046529558 0.14285314 -0.0682475
000040 de bb ec bc a5 54 b3 bc b1 c9 6e 3e 6f 29 59 3e
       -0.028898176 -0.021890948 0.23319127 0.21207212
000050 67 6a 7b bd f0 30 2b bc c6 5f a0 bc b5 d1 df 3c
       -0.06138077 -0.010448679 -0.019576918 0.027321676
000060 79 cb 86 bd 14 48 5f 3e d0 e3 4a bd 18 70 af 3c
       -0.06581778 0.2180484 -0.049533665 0.021415755
000070 bb 17 1d 3e e0 0a 42 3e b2 34 93 bd 09 75 cf bd
       0.15341084 0.18949461 -0.07187785 -0.101297446

linear_relu_stack.6.weight f4 [10, 32]
000000 97 db fd bd 87 fb 54 3f 04 78 2d be a3 81 de bd
       -0.12395399 0.831963 -0.16940314 -0.1086457
000010 30 0a de 3e 83 75 19 bf b5 35 62 3e 93 59 9b 3c
       0.43367147 -0.59944934 0.220908 0.01896361
000020 c5 40 00 bf 03 54 f6 bd 7d 96 65 be c3 a0 dd 3e
       -0.5009883 -0.12027743 -0.22420688 0.43286714
000030 87 9d 93 be ba 54 fc bd 39 f0 86 bd 7b ed 72 3e
       -0.2883112 -0.12320848 -0.065887876 0.23723404
000040 0c 59 6a 3f 1d ff 20 be 9f 85 c7 be 63 c8 ff 3c
       0.91542125 -0.15722318 -0.38969132 0.031223482
000050 e7 60 6a 3d 17 f0 de 3d d6 79 38 3d ea 4b 19 bf
       0.05722132 0.10885637 0.045038067 -0.5988146
000060 a4 dd 33 be ea b8 6b be 1a c8 e4 3b 20 aa c7 be
       -0.17565018 -0.23019758 0.006981862 -0.38996983
000070 9a aa e5 be d7 4f 78 be 1a 7d 4c 3d 9e f5 99 ba
       -0.4485672 -0.24249206 0.049923994 -0.0011746173
000080 84 dc f2 3c 3f de 2c be a0 fd 27 be 83 79 ad 3d
       0.029646166 -0.16881655 -0.16405344 0.08470442
000090 04 36 2c bf 78 f2 1d 3f da 2d e1 3e 14 d1 7c bd
       -0.6726992 0.616981 0.43980294 -0.06172283
0000a0 76 dc c8 be 9d fc db 3e fc b5 8c 3e eb 5e ea be
       -0.39230698 0.42966166 0.27482593 -0.45775542
0000b0 13 76 f2 bd 62 cc 64 bd be f4 9e 3e 58 a6 a6 3d
       -0.11838927 -0.055858977 0.31046098 0.08137196
0000c0 43 2a 1f bf b7 65 a4 bd fe b7 57 3f 10 b4 a1 be
       -0.6217386 -0.08027213 0.84265125 -0.3158269
0000d0 8e a8 ae 3d c4 ea 77 3d dd e6 89 3d 6c 5a de 3e
       0.08528243 0.060526624 0.06733487 0.4342836
0000e0 02 49 85 3e fa 89 98 3d a7 d1 36 3d 52 c9 84 3d
       0.26032263 0.07448192 0.044633534 0.06483711
0000f0 00 93 07 3f 71 1d 7f be c7 71 3a 3e 87 25 79 3c
       0.5295868 -0.24913575 0.18207465 0.015206701
000100 d8 1f 6a 3d 68 f3 75 3e 3a 1f cf 3d 36 c3 84 3e
       0.057159275 0.24018633 0.10113378 0.25930184
000110 ff 17 0b bf 26 e5 fb be 48 61 40 be d1 0a 03 3e
       -0.5433349 -0.49198264 -0.1878711 0.12797095
000120 57 eb da be ad d2 08 3f 53 39 c2 3d 58 f6 5e 3f
       -0.42757675 0.53446466 0.0948359 0.8709464
000130 9b 0e 02 3e a1 6e 48 3e fd b2 63 3f 78 2a dd 3e
       0.12700884 0.19573452 0.8894499 0.43196464
000140 1d 6e 9b bd c0 6c fe be 47 ec ea 3e de ad 25 3e
       -0.07589362 -0.49692345 0.4588339 0.16179606
000150 5f 7e 09 3e 62 35 18 be 98 d6 d5 3d f4 b9 ee be
       0.13427113 -0.14864114 0.10441321 -0.46626246
000160 bc 34 a1 bd a6 f7 31 be 50 d9 de bd 64 29 03 3e
       -0.078713864 -0.17379627 -0.10881293 0.12808758
000170 e0 6e d9 be 19 c0 d7 3e b3 c2 8d 3e b5 ed 98 be
       -0.42467403 0.42138746 0.27687606 -0.29868856
000180 5d 67 13 be ba c9 0c bf 3a 95 fb bd 41 c2 be bd
       -0.14394899 -0.5499531 -0.12284322 -0.09314395
000190 e2 48 dd be 28 b5 3b be 89 fe 8a 3e bb 5c 8a 3e
       -0.43219668 -0.18330824 0.2714732 0.27023873
0001a0 6a d1 ee 3e be b0 23 3f 06 4c a1 be d2 fe 53 3f
       0.46644145 0.6394156 -0.31503314 0.828107
0001b0 0b 8c 36 3e fb fc d6 3d b2 5b 37 3d 81 b6 3c 3e
       0.1782686 0.10497471 0.04476518 0.18428995
0001c0 d7 0e a4 be 9b 35 38 3f 69 f2 ca be 63 e2 d4 3e
       -0.32042572 0.71956795 -0.3963807 0.4157897
0001d0 9a ec c9 be 05 cf d6 3d b3 a6 13 bb 77 ec 95 3e
       -0.39438325 0.104887046 -0.002252978 0.2928197
0001e0 f5 b2 ac 3e b5 66 16 bf 6c 47 b8 bd e8 fa cb 3d
       0.33730283 -0.5875047 -0.08997998 0.09959966
0001f0 e6 ee 21 3f 64 ef f1 be b4 60 26 bc 9f 1f a4 be
       0.63255155 -0.47252953 -0.010154892 -0.32055375
000200 83 66 2f bc 6d 36 c8 be 71 89 9f 3d 5c a8 0a bd
       -0.010705593 -0.39104024 0.07789887 -0.033851966
000210 bd 3d a7 3e aa b1 af 3d 31 4b 9e 3e c5 48 31 bd
       0.3266429 0.085788086 0.30916741 -0.04328229
000220 0e 7e 96 3e c9 6f 4e be 58 31 9f be 88 cd 74 bf
       0.29393047 -0.2015983 -0.31092334 -0.95626116
000230 22 b0 8d 3e 23 fd 1c 3d e2 80 f4 be cd be 8f 3c
       0.2767344 0.038327347 -0.4775458 0.017547036
000240 c4 0b d9 be e6 6d 8d bd b4 73 78 be c3 f5 2a bf
       -0.4239179 -0.06905727 -0.24262887 -0.6678125
000250 c7 6f 03 be 3f f1 b9 3d d7 1c 2a bf f8 30 1b 3f
       -0.12835608 0.09079217 -0.66450256 0.60621595
000260 03 c2 df bd 55 1d ef 3d 70 a0 c5 3d 5c 00 9d bd
       -0.10925677 0.116755165 0.09649742 -0.07666084
000270 c9 a2 af 3b 6e 23 ab 3f de 0a 08 be 3c ae 30 be
       0.0053599817 1.3370187 -0.13285396 -0.17253965
000280 79 ef 83 3e c0 f7 f2 bc c2 9b 10 3e a7 b1 2f be
       0.2576864 -0.029659152 0.14121917 -0.17157613
000290 b5 0d 47 3f 64 d5 0b 3f a1 a2 fe be 4b 47 e2 be
       0.7775529 0.54622483 -0.4973345 -0.44195017
0002a0 39 61 b3 3e ee 1a c4 3d 24 7f bf bc f1 e4 97 bd
       0.35035113 0.09575449 -0.023376055 -0.07416714
0002b0 e3 31 66 be a0 a0 39 3d d6 8b 22 bf c7 d8 4d be
       -0.22479968 0.0453192 -0.6349462 -0.20102225
0002c0 73 3b 15 be 12 3e 17 3e 8e d6 ae be ac e8 2a 3f
       -0.1457346 0.14769772 -0.34148067 0.6676128
0002d0 2d 7c 71 bf ef 6a 09 be f0 65 26 3f 8b b8 01 be
       -0.943301 -0.13419698 0.64999294 -0.12668054
0002e0 d6 5a 8a be 43 cc e0 bd 95 f7 2f 3e 1a b4 7e 3e
       -0.27022427 -0.1097646 0.17184289 0.24873391
0002f0 48 a8 c0 3e 8d e8 5b be 24 71 2d 3e 29 be a0 be
       0.37628388 -0.2147543 0.16937691 -0.3139508
000300 b8 bf c1 bc 4a 57 2b 3d e0 0c 20 be 3f 6c 33 3d
       -0.023650989 0.041831292 -0.15629911 0.043804403
000310 b3 51 3f 3f 53 1c e8 bb 11 31 76 be c8 c7 83 be
       0.7473404 -0.0070834546 -0.24042155 -0.25738358
000320 8e 29 86 bf 47 4e 15 bd 15 07 8b be fe 1f f4 be
       -1.0481431 -0.036451604 -0.2715384 -0.47680658
000330 fe 45 c4 be d1 e9 51 bd 50 9f fb be 71 c6 87 be
       -0.3833465 -0.051248375 -0.49144983 -0.26518586
000340 fc d0 e8 3e 9c a3 e9 be 42 c1 a7 3e 46 b8 2f 3f
       0.45471942 -0.45632637 0.32764632 0.68640554
000350 c9 c9 6b be 3b 74 13 bd 95 0f fc bc 0e 00 0d be
       -0.23026194 -0.035999518 -0.030769149 -0.13769552
000360 4f 56 44 bd c6 8f 9f be 70 f0 5d 3c 39 95 0a be
       -0.047933873 -0.31164378 0.013546094 -0.13533486
000370 cd 0e 3b be 72 15 26 3f 0a 1f 14 3e 52 97 99 3e
       -0.18267365 0.6487647 0.14464965 0.2999826
000380 94 30 c7 3e 4c 36 62 3e db 9e ba 3d bc b5 0b 3f
       0.3890425 0.22091025 0.091123305 0.5457418
000390 14 42 b4 be c1 d4 fe be 56 de 22 3e af 07 30 3e
       -0.35206664 -0.49771693 0.15905127 0.17190431
0003a0 01 29 44 3f b6 2c f9 3e 52 af 21 3f e3 7f 64 be
       0.76625067 0.48666924 0.6315814 -0.2231441
0003b0 74 8a fd 3e bb cc 2a bd 68 74 90 3e 19 c8 80 3d
       0.49519694 -0.041699152 0.2821381 0.062881656
0003c0 fc 1d 84 3d c2 03 1e be 9e 20 06 3f c7 25 4b be
       0.064510316 -0.15431121 0.5239352 -0.1983863
0003d0 f9 b0 fc be be 74 32 be 05 1b fa be 66 79 b1 be
       -0.4935377 -0.17427346 -0.4884874 -0.34662932
0003e0 be c4 e3 3e b3 40 4a 3f 83 44 99 bc 6c 4a 4a be
       0.4448604 0.79004973 -0.018709427 -0.19754952
0003f0 32 73 87 be 1f 21 1f bf 67 fc 5d bc 13 9d d1 be
       -0.26455075 -0.62159914 -0.013548947 -0.4094015

linear_relu_stack.6.bias f4 [10]
000000 5d 38 90 be ea 8a ff 3d aa 52 79 3e 0c 9e ba be
       -0.28168002 0.12477668 0.2434794 -0.36448705
000010 8a 1d 45 3e 17 cc 1e 3e 36 97 37 bd 54 61 cb 3d
       0.1924955 0.15507542 -0.04482194 0.09930673
000020 c8 64 8e be 11 40 e0 3c
       -0.27811265 0.0273743
