my_mnist_model.pt (torch, 440599 bytes, 6 tensors)

weight f4 [128, 784]
00000000: 68c9 cdbc e1be 25bc 0424 593c 79ce 763c
00000010: 84f2 053d cfac 27bc 7df7 d3bc e7df 6bbc
00000020: fd06 50bc f2b1 e33c eb06 0b3c d31f 413b
00000030: b8d6 99bc 6953 0b3c 54ab ca3b deda c03c
00000040: 8090 503b e539 de3b b7c5 9d3c 3586 d4bb
00000050: fd06 dbbc 9839 0ebc 17ab eabb 93ea 05bc
00000060: 0b8c 54bc 92ef 07bd 653c ed3c 1887 6b3c
00000070: 1244 d43c 9091 03bd 6e2e 82b5 ecce ff3c
00000080: 0f71 ad3b 0523 5a3b 9a95 853c 412c 753a
00000090: e55f 86bc 77f5 0cbd 97ee 983b 49cc f23b
000000a0: 08b9 68bc 29fe 013d 2645 71bc 7332 56bc
000000b0: 123c adbc efbe 59bc 6e0f 893c 21eb 8ebc
000000c0: 9941 d03b f106 bf3c 820a 703c d421 13bc
000000d0: 313e cbbc 4ca6 b2bb 4fb5 8abc 4a0d d93b
000000e0: eeeb d73c a784 be3c 7c39 9fbc c49e ce3c
000000f0: 9977 e23c 9fbb 5f3b 1aad cfbc 9985 453c
00000100: 1570 a13b 92cb 1abd 6aec 093d f365 173c
00000110: a160 f53c 884a 3c3a ace5 3fbc c9b8 1cbc
00000120: ea70 853c c085 d03c 433c f13c 5674 a4bb
00000130: 9f1d 94bc b83b 8dbc fbb5 d03c 6c37 86bc
00000140: 2d54 94bc 3dbf a03c 9d8b 9a3c 79b0 ed3c
00000150: d039 aebb 3a98 a1bc 23f7 1bbc d24a c3bc
00000160: 1208 943c f4fe 3dbb 61e5 b4bc 6bde ffbc
00000170: 5d39 083d af96 09bd 02c9 583b c992 d8bb
00000180: 5a08 0e3d 04f5 1dbc b917 0d3d 691a 833b
00000190: ea91 54bb 164a 703b 5ffd 253d 404a 0d3d
000001a0: e1f7 bc3c 8ac0 123c 96bb fcbb 4931 fa3c
000001b0: 83d8 d63c ebee 08bd 9bbe 363c 0750 a23c
000001c0: 3b84 ff3c 93e1 993c a939 bbbc 8be3 3bbc
000001d0: 7774 873c 2031 f03c 3239 a4bb f59c d53a
000001e0: f97f cb3c 2c9d ef3c 0d1c ea3c 13c4 11bd
000001f0: d0b2 013d 8178 ab3c 9c18 023d fcb8 c43b
00000200: d04b d03c b8b5 b8bc 3c5d cd3c 5944 8ebc
00000210: b090 b5bb 6570 233d 0bdc a1bb 6032 01bc
00000220: fe83 f3bc 02a0 b6bc add5 11bd 5ef9 a33c
00000230: 6415 c6bb a406 243c 94e4 88bb e66e 823c
00000240: a188 0bbd 1fe8 8abc 442b 58bc 779f 873c
00000250: e4ed 45bc 895b 1e3d f498 90bc 1752 473d
00000260: f99a 143c 5c6d 623d 9e32 f43c 87e3 fe3c
00000270: 98ad a13c 15a3 603d c12b 10b9 358b b23a
00000280: c970 053d 5ac0 db3b bf87 99bc 1722 92bc
00000290: d723 55bc d8a6 f5bc 9208 12bc ead8 b9bc
000002a0: 5ba7 0abd 0031 0abd 5558 2cbc c056 01bc
000002b0: e027 8e3c 88ef 913c a02b 113d 96cf 9dbc
000002c0: 3f96 f2bb 6fc9 d4bc 9ccb c43c 5ee8 293d
000002d0: e5cb df3b 6e88 cf3b 10dc 38bb a72a 6d3d
000002e0: 617f cf3c 0c5c 773c c79e 723b bb22 fbbc
000002f0: 428b 1f3c e925 833b da8d c8bc ec4c 0f3c
00000300: a7cb 3d3c 9155 84bc caaa 6b3c 1fa9 a3bc
00000310: 7aef d83c 4762 7f3c 31e2 033d 5a3a f63c
00000320: 8f1a c5bb 2342 26bd 75e3 00bc d468 93bc
00000330: 1d28 32bc b1d8 b8bc 017f b73c b504 65bc
00000340: 6be3 db3c ba0c 02bd 91a1 c1bc a7f9 9dba
00000350: 5a7b 37bc 7e90 35bd ae5e 84bd 11b6 f8bc
00000360: fb44 cabc ddf8 d8bc 3e63 68bd e50a 073c
00000370: e33c fa3b 89e8 e73b 0034 b03c 66aa 0b3d
00000380: 67cb 773c a267 c13b 532b 05bd 623b 6a3c
00000390: 0f0a d83b 4e32 febc 0521 d23c fa8b 1a3d
000003a0: 38c8 77bb 92ca 93bc 075b e53c 4421 0d3d
000003b0: 5366 203c 3c55 4ebc b861 31bd 97eb d4bd
000003c0: b4b1 fabd a8f4 c5bd 6fec 97bd 7e8d a5bd
000003d0: fbcc 92bd 3ee0 babd d50b 4abd f278 6fbd
000003e0: 36a0 1bbd fa60 32bc c247 d2bc ee97 fa3c
000003f0: dd9f 3cbc 116a e63b a64b 3cbc 9fdb 693b
-0.025120452 -0.01011631 0.013253216 0.015063875 0.032701984 -0.010234072 -0.025874848 -0.014396644
-0.012696979 0.027794812 0.008485536 0.0029468432 -0.018779144 0.008503773 0.0061849747 0.023541864
0.003182441 0.006781804 0.019259317 -0.0064857253 -0.02673673 -0.008680724 -0.007161509 -0.008173603
-0.012972842 -0.033187456 0.028959462 0.014375471 0.025911365 -0.03212124 -9.699268e-07 0.031226598
0.0052930187 0.0033285033 0.016306687 0.00093526026 -0.016403148 -0.03441378 0.004667114 0.0074096066
-0.014204271 0.031736527 -0.014725959 -0.0130735515 -0.021146808 -0.013290151 0.01673099 -0.017446103
0.006355476 0.02331874 0.014650943 -0.008980233 -0.024809929 -0.005451953 -0.016932158 0.0066238986
0.026357617 0.023256613 -0.01943659 0.02522219 0.02764492 0.003413893 -0.025351096 0.012055778
0.0049266913 -0.037791796 0.033672728 0.009240615 0.029953303 0.0007182737 -0.011712473 -0.009565541
0.016289193 0.025454402 0.02944768 -0.005018751 -0.01808053 -0.01724039 0.0254774 -0.01638385
-0.018106544 0.01962244 0.0188654 0.029014813 -0.0053169504 -0.019725908 -0.009519371 -0.023839388
0.018070254 -0.0028991075 -0.022082033 -0.031233987 0.03325783 -0.03359097 0.0033078794 -0.006609295
0.034675933 -0.009640936 0.03444645 0.004000951 -0.0032435604 0.0036665252 0.040524837 0.03449464
0.023067417 0.008957038 -0.0077127917 0.03054108 0.026226288 -0.033430975 0.011153842 0.01981355
0.031190982 0.01878432 -0.022854643 -0.011467825 0.016535027 0.0293203 -0.005011701 0.0016297387
0.024841296 0.02924975 0.028577829 -0.03558738 0.03166467 0.020931484 0.03176175 0.006003497
0.025426775 -0.022547588 0.025068872 -0.017366575 -0.0055409297 0.03990211 -0.0049395612 -0.0078855455
-0.029726025 -0.022293095 -0.035604168 0.020016368 -0.0060450304 0.010011349 -0.0041776393 0.015922021
-0.034065846 -0.016956387 -0.013193909 0.016555531 -0.012080643 0.038661513 -0.017651059 0.04866227
0.0090701515 0.055280074 0.029809292 0.031114353 0.019736096 0.054843027 -0.0001374921 0.0013621809
0.032578263 0.0067062797 -0.018741487 -0.01783852 -0.013009033 -0.029986784 -0.008913176 -0.02268644
-0.03385101 -0.033738136 -0.010519107 -0.007894218 0.017352998 0.017814413 0.035441995 -0.019264024
-0.0074031646 -0.025974957 0.02402287 0.04148137 0.006829726 0.0063334024 -0.002820734 0.057902005
0.025329294 0.015097629 0.0037020908 -0.03065621 0.0097377915 0.004002322 -0.024481703 0.008746367
0.011584199 -0.016154082 0.014383981 -0.019978104 0.026481379 0.015587396 0.032198135 0.030057121
-0.006015129 -0.040590417 -0.00786673 -0.017994322 -0.010873822 -0.022564264 0.022399427 -0.013978173
0.02684184 -0.03175042 -0.023636611 -0.0012052552 -0.011198843 -0.04432725 -0.06463371 -0.030360254
-0.024691096 -0.026485855 -0.05673527 0.008242344 0.007636653 0.007077281 0.02150917 0.03409805
0.0151241785 0.0059022466 -0.03251202 0.0142963845 0.006592996 -0.031029847 0.02565051 0.03773115
-0.0037808549 -0.018040929 0.027997507 0.034455553 0.009790021 -0.012593564 -0.043306082 -0.10396498
-0.122409254 -0.09665805 -0.07418143 -0.08083628 -0.07168003 -0.09124802 -0.04932769 -0.05846495
-0.037994586 -0.010887379 -0.025668982 0.030590024 -0.011512724 0.007031687 -0.011492645 0.0035683883

bias f4 [128]
00000000: 2ca9 1f3b 6542 bebc 09c5 0fbb 3494 6c3a
00000010: 4458 e63c c5a7 7e3c d8a1 13bd c017 ec3b
00000020: 31cd 123d ab8c a23c dcec cd3c 2960 213a
00000030: 9de8 8ebc 24b5 b6bc db68 d33c 0d8a 0ebc
00000040: 1706 e7ba 2e1e 09bd 8036 cebc a58e a53c
00000050: 0f32 2bbc 8b26 03bd 314c 053d 2425 04bd
00000060: a89f 34bb 0e5b 0a3d 2488 6fbb 712c a63c
00000070: 91cf c53b 371e 363c adc4 57bc 8a10 5f3c
00000080: 5eeb ed3c 180f 853c a53d 17bd 8c0d 34bc
00000090: 57cd 863c 079b 13bc 9f9e 1c3c fe1b d9bc
000000a0: 7f50 833c d689 e23c e580 61bb 5369 973c
000000b0: 89e4 f5bc 5dce 1ebd 98f8 bb3c 1642 1a3c
000000c0: b532 67bc 5bb2 65bc f3fb 26bc 37a0 fa3c
000000d0: 56f6 9b3c 2ac6 44bc 4d9b 3ebc d5e1 0f3d
000000e0: 6972 a73c 4e02 8e3c c164 bb3c d3ca 08bd
000000f0: 0529 eebc 374e 17b9 f8a5 123d 252b 75bc
00000100: 2f4c 803c fbaf 603b c9a8 003d 0b06 df3c
00000110: 86ef 0bbd 19f5 d73b 6a59 8eb9 ca4f 5bbc
00000120: b83c 9b3c c2fa 95bb 635c b5bc e145 b9bc
00000130: 1766 ef3b c0be 163b 0c42 ad3c 369b a2bb
00000140: c116 30bd d1f8 eb3a 20c7 e0bb 2a78 e4bc
00000150: c602 ecbb 577a b23c 4c77 f0bc 5e87 d4bc
00000160: ccc7 9abc 6d52 a9bc b35a 283d e331 553c
00000170: 1dfc 6b3c 23ab 85bc 0b29 a43c 9fd5 dcbb
00000180: 050a 293c c3c1 18bc 9905 e33c 471e d23c
00000190: 1c3b 103d 1d26 89ba 7f9d 6c3c 6e79 60bb
000001a0: 5e4b d83c b110 f73c 3039 463c 0312 44bc
000001b0: b79c 913c 01c3 86bb 2008 ae3c e70b c2bc
000001c0: b0f9 a8ba 644f 903c 530e 8d3b 8809 06bd
000001d0: 2e18 b1bc b689 543c 91c5 5cbc 7a50 b63c
000001e0: 6b35 21bd f21e e73b a281 89bb b6ef 24bd
000001f0: 5c90 913c 5a78 c1bc f21e 493c 1999 e1bc
0.002436231 -0.023225019 -0.002193751 0.00090247695 0.02811826 0.015542929 -0.036043018 0.0072049797
0.035840217 0.019842466 0.025137357 0.00061559916 -0.017444903 -0.022303171 0.025806835 -0.008699906
-0.0017625716 -0.033476047 -0.025172472 0.02020962 -0.010448947 -0.03201918 0.032543365 -0.032261983
-0.0027560983 0.033778243 -0.0036549652 0.020284863 0.0060367067 0.011115602 -0.01316945 0.013614783
0.029042896 0.016242549 -0.036924023 -0.010989558 0.016455336 -0.009009129 0.009559303 -0.026502606
0.016029594 0.027653616 -0.0034409103 0.01848284 -0.0300162 -0.038771022 0.022945687 0.00941517
-0.014111211 -0.014019574 -0.010191905 0.030593975 0.01903836 -0.012010137 -0.011633706 0.03512748
0.020440297 0.017335083 0.022875192 -0.033396553 -0.029072294 -0.0001442962 0.03580281 -0.0149639
0.015661327 0.003428458 0.031410966 0.027224561 -0.034163974 0.006590497 -0.0002715097 -0.013385722
0.018949851 -0.004577012 -0.02213878 -0.022616329 0.007305871 0.002300188 0.021149658 -0.0049623502
-0.04299045 0.001800323 -0.006859675 -0.02788933 -0.007202479 0.021786852 -0.02935376 -0.025943454
-0.018894099 -0.020669186 0.041102123 0.013012382 0.01440337 -0.016316956 0.020039102 -0.006739333
0.01031733 -0.00932354 0.02771263 0.025649203 0.03521262 -0.0010463629 0.014441847 -0.0034252065
0.026403125 0.030159326 0.0120985955 -0.011967185 0.017774923 -0.0041126017 0.021244109 -0.023687316
-0.0012891795 0.017615981 0.004304686 -0.032723933 -0.021617975 0.012972286 -0.013474838 0.022255171
-0.039357584 0.0070532495 -0.0041963616 -0.04026767 0.017769031 -0.023616958 0.012275444 -0.027538823

weight f4 [64, 128]
00000000: b026 203d 5e15 0cbd 2896 9b3b 6aca 26be
00000010: fc03 dc3c deec 773d ba9f eabc 5133 983d
00000020: 7caf bfbd 8ea4 8f3d e483 a7bd 53bf 47bc
00000030: f0f3 593d 5dac c9bc 2ef8 c73d fa1d 983d
00000040: e591 123e fe78 58bc c529 123e 6307 e53c
00000050: 6880 073e 31b9 e4bd 7eb4 18bd 3485 2dbc
00000060: 963a 683d 7dfb c53d 6109 09bd fa20 e03b
00000070: a747 873d cb1f 96bd 2346 333d 0348 8d3d
00000080: 10d1 81bc fb16 a43d 9c20 7a3d 5ea9 0fbe
00000090: 4601 673d f420 6dbe 7f26 9cbd f2ae b53d
000000a0: b580 703d 0e4a efbd 5795 c23d 53f0 653d
000000b0: a4e4 e8bd abc9 143c 5fc0 823c 0314 99bd
000000c0: db9e 173e 6ef2 73be d665 c2bd d9a5 fdbc
000000d0: 4899 8fbd 05aa 8c3d 1f40 d9bd c647 04be
000000e0: cc68 b7bd ec85 7ebd a986 b6bb 0c25 90bd
000000f0: e3df 033c 17da 18be 1b99 a0bd ebf3 cfbd
00000100: f323 d6bd 5535 ddbb 5a4b 01bd d81d 033d
00000110: a032 81bb 4e3c 72bd 93bb ed3c 8b4a 10bd
00000120: d2f1 25be 4d0d 44bd 5769 993c 7e59 af3c
00000130: 360e 883d 8b43 f4bc 262b d0bc 2399 593b
00000140: 7589 6c3c 478e 0bbe 5e20 35be 37f5 a53d
00000150: 6eb9 83bd b0b1 4d3c 3571 4dbd 0436 343c
00000160: c2f4 593c 2dc8 a6bd 103f 2b3d 6c37 3b3d
00000170: 5b33 2c3b 65af afbd f43e 613c 8d11 a53d
00000180: 7cb6 783d 3b04 063e ebf2 8cbc 69b1 0f3c
00000190: c954 d73b 8162 16bd 80cd ce3d 9e1d 963d
000001a0: f789 cdbc d741 9a3d 7e2c 3bbd 850d 8f3d
000001b0: eb26 933b 62a6 753c a85a 35bc 88c8 c13d
000001c0: 2959 09bb 082f 29be 334e 8e3d 2551 723d
000001d0: fedc 9f3d f55d 573d 42f0 e83d 539e 993d
000001e0: 922f 03be 0a75 bf3d c012 d0bd d996 1b3d
000001f0: 3a44 113e cfb9 0e3d 7f6f 053e 1c27 ff3c
00000200: 2c3c b43c 6014 92bd af2a 9bbd e2bd d4bc
00000210: 87e9 a0bd 9dbb e1bd bbce 45bd fc35 36bd
00000220: 7454 7c3d 48fa ba3d c748 2ebc 82e8 df3d
00000230: c1a4 173e 2f0e b33a 88ea 2abe 8fad c93b
00000240: 45a8 ca3d 56b7 c4bb 34cf e03d 726a a7bd
00000250: ba2c 963d 3704 a13d b31d 9f3d a744 f73c
00000260: 6580 6dbd 0b2f 71bd 710f 813d c005 943b
00000270: a97e db3d 8db1 25bd e911 82bd 7487 b33d
00000280: 00ec f9bd b0a5 85bd a52b 083e 8fd5 aebd
00000290: 21c8 b2bc 577d 32bd 06cd 5f3d 76b3 bd3c
000002a0: 9d85 903d fd7a 103e b368 003d 1f6f e23d
000002b0: 5746 693d 864f 893d e6e8 f3bc 604c 69bd
000002c0: fc93 453d 99bd 24be b46d 9fbd 0f40 24bc
000002d0: cd9e 213e 0ed3 bc3d 4ed1 c7bb ee9d babd
000002e0: 8172 4a3c 8ecc ba3d 6fcd ad3d 8265 813d
000002f0: c10a d53d 18a1 803c e14d 423d 9dc6 e9bd
00000300: d9f9 a7bd a409 efbb 12b7 673d 5696 8f3d
00000310: 8b7c 933d 82b8 9e3d beea 43be be2b 2f3a
00000320: 99ef 723c c4dc ccbd 9e92 883d 2dfc 4dbd
00000330: 50f7 c73c eb2f b4bd 39cd c93c ac94 c13c
00000340: bb46 51bd 3ec4 1ebe b486 fa3c 84a6 23bd
00000350: 16ac 423c 2b5e aabd cfb3 823d 93c9 d9bd
00000360: 8323 643d fd02 c6bc 16c6 56bc f1de 953d
00000370: bd6e 30bd 6097 b1bc 432e ef3d caf3 c23d
00000380: 0b75 94bd 32b2 863d 48ec 2a3d d852 5abd
00000390: 36f0 c13d 8688 b3ba d415 d13c 4c9e 10be
000003a0: 320c e5bb 4c46 5f3d 5919 e8bc 7312 103d
000003b0: dd3b c03c 81b8 5e3d bef0 6dbb c14d 5c3d
000003c0: 88ac 003c f3bc d5bd d02f 9cbd eed5 2c3d
000003d0: 7f76 b23c 64ba 6d3d 660a 5d3d 36ff 773c
000003e0: c066 003d 0a5b b1bc 7fad d1b9 fd5b e9bc
000003f0: 2e3a f53d 0919 243e e0b3 91bc acd9 3b3e
0.039099395 -0.034200065 0.0047481246 -0.16288152 0.026857369 0.06052863 -0.028640617 0.07431663
-0.09359643 0.07013808 -0.08179453 -0.012191611 0.053211153 -0.024618322 0.097641334 0.074275926
0.14313467 -0.013212441 0.14273746 0.027957624 0.13232577 -0.11168135 -0.037281506 -0.01059084
0.056696497 0.09667108 -0.03345621 0.0068398686 0.066054635 -0.07330283 0.04376806 0.06898501
-0.01584676 0.08012196 0.061066255 -0.14029452 0.0563977 -0.23157102 -0.0762453 0.08871259
0.058716495 -0.11684047 0.095011406 0.056137394 -0.11371735 0.0090812845 0.01596087 -0.0747452
0.14806692 -0.23822948 -0.0949208 -0.030962871 -0.07011658 0.06868366 -0.10607933 -0.12918004
-0.08955535 -0.062139437 -0.005570252 -0.07038316 0.008048984 -0.14926945 -0.078417026 -0.101539455
-0.104560755 -0.0067507424 -0.031566 0.032010883 -0.0039428025 -0.059139542 0.029020106 -0.03522734
-0.16205528 -0.047864247 0.018726988 0.021404978 0.066433355 -0.029817363 -0.0254112 0.003320285
0.014437069 -0.13628493 -0.17688128 0.08103412 -0.06431852 0.012554571 -0.05015679 0.010999206
0.013302984 -0.08143649 0.041808188 0.04570715 0.0026275727 -0.08578376 0.013747919 0.08059988
0.060720906 0.13087551 -0.017205676 0.008770325 0.0065713865 -0.036715034 0.1009779 0.07329868
-0.0250902 0.07532089 -0.045696728 0.069850005 0.0044907234 0.014993282 -0.011068977 0.094620764
-0.0020957685 -0.16521847 0.06948509 0.059159417 0.07805823 0.05257984 0.113739505 0.07500901
-0.12811115 0.09348495 -0.10159826 0.037985656 0.14186183 0.03484517 0.13030814 0.031146578
0.022001348 -0.071327925 -0.075765006 -0.02596945 -0.07857042 -0.110221125 -0.048292857 -0.044485077
0.06160398 0.091297686 -0.010637469 0.10933019 0.14808942 0.0013660843 -0.16691029 0.006154723
0.09895376 -0.0060033007 0.10977021 -0.081746 0.0733275 0.07862132 0.077693366 0.030184103
-0.057983775 -0.058882754 0.06301773 0.004517287 0.10717518 -0.04045253 -0.06351072 0.0876607
-0.122032166 -0.06525743 0.13297899 -0.08536827 -0.021823945 -0.043576565 0.054638885 0.023156863
0.07056735 0.14109416 0.03134985 0.11056351 0.056951847 0.06704621 -0.02977414 -0.056957603
0.048236832 -0.16087951 -0.07784596 -0.010025038 0.15783234 0.09219943 -0.006097949 -0.09112154
0.012356401 0.09121047 0.08486449 0.06318189 0.10402442 0.015701815 0.047437552 -0.114148356
-0.082019515 -0.0072948504 0.056571074 0.07011096 0.07201489 0.07750036 -0.19132516 0.00066822383
0.014827632 -0.10003045 0.0666859 -0.05028932 0.02440992 -0.08798202 0.02463399 0.023630463
-0.051092844 -0.15504548 0.03058181 -0.039953724 0.011881849 -0.08318742 0.06381952 -0.1063415
0.05569793 -0.024171347 -0.013108751 0.07317913 -0.04307436 -0.021678627 0.116787456 0.09519155
-0.07248887 0.06576957 0.04172924 -0.053301662 0.09469645 -0.0013697303 0.025523104 -0.14122885
-0.006989979 0.0545104 -0.0283324 0.035173845 0.023466045 0.054375175 -0.0036306824 0.05378509
0.007853635 -0.1043643 -0.07626307 0.042196207 0.021785019 0.058039084 0.053964995 0.015136531
0.03134799 -0.021649856 -0.0003999285 -0.028486246 0.119739875 0.16025175 -0.017785966 0.18344754

bias f4 [64]
00000000: ab13 89b7 84e0 823d 9f41 703c aec9 5e3c
00000010: bf6e 8b3b 7c7f 7e3d c6f4 cfbb 850c 7cbd
00000020: 26db 34bd 969e 77bd ea62 043d 911f a3bb
00000030: 1e8b b53d e33a 05bd 33e5 55bd a8b3 c83c
00000040: 2b82 1abd ca9a 983d fd60 d83c bebd e93c
00000050: 2c88 a8bd 226b cf3d 27f4 a83c a7dc 60bd
00000060: 2492 7e3d bd32 11bd dca6 773d aae2 e7bc
00000070: cc18 da3c 988b 3d3c 3c2e 323d 13e0 033d
00000080: 7df8 3d3d c942 29bd ab7f 383b 14cf a3bc
00000090: d9b1 a93d 1f51 c33c 1f19 64bb 0283 aebd
000000a0: 81b6 1fbd 7b0b 24bd c058 afbd 33e8 90bb
000000b0: f177 3a3d 5469 19bd 2d7c a4bd 8cfc 00bd
000000c0: c8d7 20bc a1d5 fa3c ed82 d83d 91b4 d13d
000000d0: 9915 923b 1619 9b3b f124 1b3d 71ad cc3b
000000e0: 7b59 b13d dbcf dabc d992 20bd 0b17 703d
000000f0: 8e8e 553c 62bf 523d 38b8 9dbd 9135 c23d
-1.6340831e-05 0.06390479 0.014664083 0.013597889 0.0042551453 0.062133297 -0.006346318 -0.061535377
-0.04415431 -0.060453974 0.032320894 -0.0049781282 0.08864425 -0.032526862 -0.052220535 0.02449973
-0.037721794 0.07451399 0.026413435 0.028532859 -0.08229098 0.10127856 0.020624233 -0.05489793
0.06215109 -0.03544878 0.060461864 -0.028306324 0.026623152 0.011568926 0.043501124 0.032196116
0.046379555 -0.041323457 0.0028152268 -0.019996203 0.08285875 0.023842392 -0.0034805012 -0.085210815
-0.03899241 -0.04005001 -0.085618496 -0.0044222116 0.04552454 -0.037453964 -0.08031497 -0.031490847
-0.009817071 0.030619444 0.10571847 0.102395184 0.004458141 0.004733215 0.037877027 0.0062462618
0.08659645 -0.026710441 -0.039202545 0.058615725 0.013034476 0.051452048 -0.077011526 0.09482873

weight f4 [10, 64]
00000000: 36ac 333d f456 28be d547 d3bc d472 72be
00000010: 85e0 01bf 03ab 4dbe 150e f0be 5f85 1fbe
00000020: fe72 81be 8751 f63b 0924 013d 13d1 7e3d
00000030: 29c0 f83e bd2d 90bb 82d0 a2bd c46b a7bd
00000040: c4ee 53be cc4d 773d 7b8b 86bd 8714 7c3d
00000050: 6dd8 853c 17d9 123e 282a 673d bbce 083d
00000060: 060f 853e 0b16 7ebe 443d 31bd 1aec 0dbe
00000070: c1bf dabe 287a b13d 22da 82be 0523 f13e
00000080: b22f 553d 76d4 74bd bdcc bebd 8d98 00be
00000090: 6aa1 c6bc 56af 04be ce23 bbbd 1891 d23d
000000a0: 299f 7abe 3f99 04be e89a aa3e 5081 a1be
000000b0: 4a9c 4d3d 3e87 393e d07a 23bc d60d 42be
000000c0: 8486 433d e0fa c03e 706a 703c 4481 b63e
000000d0: a7e4 223e 9fcb 673e 62a5 a13e cc7b 58be
000000e0: 86c3 ffbd 5374 c33e 5447 3e3e ad13 8cbe
000000f0: ec33 f7bd 84fa 44bd ca00 69be d353 4b3e
00000100: e13c 88bd a0a2 7bbe 8308 903d f8c3 a33e
00000110: ede3 b03e c273 ee3e 6c81 0b3d 2a30 b7bd
00000120: d18a 88be 257a b83d 880f f73d 257a c33d
00000130: 52fa 16bf 1dee 48be 1841 2f3e ee72 cbbd
00000140: 338f 2abe 9fd9 afbd 7748 c63d f7b7 d2be
00000150: e41f b5bd 050b bf3c 90c3 7e3d 0c4a 0a3d
00000160: 11c2 6e3d 0545 803d 4c13 2cbe aa1d 84be
00000170: d6bf 06be 7f97 0a3d b2a4 f33e e509 08bf
00000180: 863a 163e fb2f fa3d ed0d feba d54d 55bc
00000190: 2011 f4bd ae5b 8abd b924 db3e 736f 20bd
000001a0: c613 cdbd 23d9 3dbd aa17 413e a50b 103f
000001b0: a7c7 b9bb e7c1 283e 61ae 9f3a 6e7f 983e
000001c0: 9078 88bd d2a4 903e 9382 e0be a666 b7be
000001d0: 038e 243d 4dc1 c53d 262b ecbe dcc7 433e
000001e0: a212 823d 4e83 0b3d 89a3 cb3d ae3c 9bbd
000001f0: e32a f83e e47b ae3d cc1f 9d3e d960 953d
00000200: 6d3c 87be 3a84 cf3d 416e 2f3d 1ed3 883d
00000210: 49ac c9b9 7123 95be a4ae 063d 16d7 303e
00000220: d937 833e d9e4 94bd a9c7 c93d 80b2 bebc
00000230: 9f13 6a3d fa91 4a3e ccb3 25be b9d6 573c
00000240: 2239 a6be 219b 9dbd 99f3 e93d 3b19 c6bd
00000250: c91f 03bd 63fb 1b3d b971 cfbd c90b abbd
00000260: d25a cd3d 346d 973e 9b95 923e 7f9c 073e
00000270: ce94 f3be 032b fe3d 2c15 fe3d f7dc 11bf
00000280: ebab e1be 7118 dbbd b8c5 9abd 5924 49be
00000290: 3d05 d0be 7636 a5be 01ef cc3e 18c5 66be
000002a0: 2eb9 143e e93c 063e e4bb 81bd 7465 7fbc
000002b0: 1dbd a4bd caab 753e 49b6 303e 6da8 1e3d
000002c0: 9a06 a63c ceab cc3e 0296 643e c4e7 003e
000002d0: 08a4 553d be7c db3e b8aa de3e c83d 703e
000002e0: 4f05 c7bd 8a85 a2be 24d3 693d d7f9 1b3f
000002f0: 2713 c9bd d39a b5bc be2c f33c a89e 173f
00000300: 60f5 5a3e bec0 c53e 3f46 27bd 1836 d9be
00000310: d8df 3b3e 9d10 9a3e 03e8 64be f4fe 20be
00000320: a8da ad3e b5e0 9ebd c66b 7abe d1c9 07be
00000330: a830 55be dc3e 9d3e 8ae9 48be 928d e73d
00000340: b75d 4fbe 61fe e4bd 2c0a b2bc 602e e1bd
00000350: 7e0f ad3d 1b95 a0be be02 c2ba 6bce 473d
00000360: e199 c33e 297b 673d a1ab fd3c 77e4 0f3f
00000370: 9382 a43d 198f fabc abf2 dfb9 4959 acbe
00000380: 239b 49be 8fc7 5ebd 4ed3 a53d 07a6 293e
00000390: 1982 f83e aca6 b53e 599a e03d 6fe9 fc3d
000003a0: 7d0b 6ebe 052a 33bc 2abc d33e 68f1 c83d
000003b0: bc13 333e a383 d8b9 e07c a63e 8fcf 20be
000003c0: 41f2 f23d b5d0 8b3c fb45 acbe cd37 603e
000003d0: 96d1 31be a61e 00be 358d d4be b978 26be
000003e0: 2f7d f8bd aef4 0dbe 5cca a73d c712 703e
000003f0: a72d 25bf 359e 5cbd 5102 273e b214 80bd
0.043865405 -0.1643942 -0.025791088 -0.23676616 -0.50733215 -0.20084767 -0.46885744 -0.15578221
-0.25283045 0.007517043 0.031528506 0.062211107 0.48584107 -0.0043999837 -0.07949926 -0.081748515
-0.2069655 0.060376927 -0.065695725 0.061543014 0.016338551 0.14340626 0.056436688 0.03340028
0.25988024 -0.24813096 -0.043271318 -0.13859597 -0.42724422 0.086658776 -0.25557047 0.4709703
0.05204744 -0.05977293 -0.093163945 -0.12558194 -0.02424689 -0.1295751 -0.091376886 0.10281581
-0.24474777 -0.12949084 0.3332131 -0.3154397 0.050197877 0.18117997 -0.009978011 -0.1895059
0.047735706 0.37691402 0.014673814 0.35645497 0.15907536 0.22636269 0.3157149 -0.21140975
-0.12488465 0.38174686 0.18581897 -0.2735876 -0.1207045 -0.048090473 -0.22754207 0.19856195
-0.06652237 -0.24573755 0.070328735 0.3198545 0.34548894 0.4657269 0.034058973 -0.089447334
-0.2666841 0.09007672 0.12063509 0.095447816 -0.5897571 -0.19622083 0.17114675 -0.099340305
-0.16656189 -0.0858643 0.0968179 -0.4115598 -0.08843973 0.023320684 0.06219822 0.033762023
0.058290545 0.062631644 -0.16804236 -0.25803882 -0.13159117 0.033835884 0.4758659 -0.531401
0.14670762 0.12216183 -0.0019382812 -0.013019045 -0.11917329 -0.06755768 0.42801455 -0.039168786
-0.10013537 -0.046349656 0.18856683 0.5626777 -0.0056695524 0.16480218 0.0012182706 0.2978472
-0.066636205 0.28250748 -0.4384962 -0.35820502 0.040174495 0.0965601 -0.4612667 0.19119209
0.0635121 0.03406077 0.09943301 -0.07579933 0.4847022 0.08519724 0.30688322 0.07293863
-0.2641329 0.10132642 0.042829756 0.066808924 -0.0003846607 -0.29128602 0.032881394 0.17269549
0.25628546 -0.07270212 0.09852535 -0.023278475 0.05714762 0.19782248 -0.16181868 0.013173752
-0.32465464 -0.07695604 0.11423416 -0.09672781 -0.032012735 0.038081538 -0.10129113 -0.08351857
0.10027088 0.29575503 0.28629765 0.13243292 -0.47574466 0.124105476 0.12406382 -0.5697779
-0.44076476 -0.10698021 -0.07557243 -0.19642772 -0.40628996 -0.32268113 0.40026096 -0.22536123
0.14523765 0.13109173 -0.063346654 -0.015588153 -0.08043883 0.23991314 0.17257036 0.038734842
0.02026682 0.39974827 0.22322848 0.12588412 0.052158386 0.42868608 0.43489623 0.23461068
-0.097178094 -0.31742507 0.057086125 0.609281 -0.09818106 -0.022168553 0.02968442 0.59226465
0.21382666 0.38623613 -0.040838476 -0.42424083 0.18347108 0.300908 -0.2235413 -0.15722257
0.33955884 -0.07757703 -0.24455175 -0.1326058 -0.20819342 0.3071202 -0.19620338 0.11306299
-0.20250593 -0.111813314 -0.021733366 -0.109951735 0.084502205 -0.31363758 -0.0014801843 0.04878084
0.38203338 0.05651394 0.030965628 0.56207985 0.080327176 -0.030585812 -0.00042714676 -0.3366187
-0.19688086 -0.054389533 0.08096944 0.1656724 0.48536757 0.35478723 0.109669395 0.123492114
-0.2324657 -0.010935311 0.41354495 0.098116696 0.17487997 -0.00041296807 0.32517147 -0.15704177
0.118626125 0.017067293 -0.3364714 0.21896286 -0.17365107 -0.12511691 -0.41513982 -0.1625699
-0.12133252 -0.13862869 0.08192894 0.23444663 -0.64522785 -0.053861815 0.16309477 -0.06253947

bias f4 [10]
00000000: d72d 1d3e bc2d abbd 5224 073d 9bd1 ca3d
00000010: 7889 ee3c 3b71 1d3d 9ad7 25bd 34db 963d
00000020: 35ec 373e e4c5 aa3d
0.15349518 -0.083583325 0.032993622 0.0990326 0.029118285 0.038438063 -0.040488817 0.073660284
0.179612 0.08338526
